test_data/ST_Example_Files/ST_PINN_model.pt (torch, 150018 bytes, 12 tensors)

A.weight f4 [46, 46]
000000 07 5d 13 bf 5a f2 d9 bd ed 90 d8 bd 8f 58 d9 bd
       -0.57563823 -0.10641928 -0.105745174 -0.10612594
000010 15 92 d9 bd 28 ca eb 3a 85 8f 45 bb b1 b9 5d b5
       -0.10623566 0.0017989324 -0.0030145359 -8.259913e-07
000020 57 b0 a8 38 14 06 c4 3a 16 36 5a 3b d4 71 06 39
       8.04371e-05 0.0014955425 0.0033296398 0.0001282164
000030 6f be 07 35 96 32 7b 3a 2e e3 1c 3b 86 7e e3 39
       5.0568536e-07 0.0009582428 0.002393912 0.0004339108
000040 9d e5 62 b5 35 ee 5b b4 4d cb 01 bb 07 e7 15 bb
       -8.452569e-07 -2.0482624e-07 -0.0019805015 -0.0022873299
000050 78 64 76 ba d8 7d 18 ba 2b f1 61 b9 f6 92 a9 b4
       -0.0009399126 -0.0005817092 -0.00021547514 -3.158563e-07
000060 6c 91 fc ba 66 e7 af ba 48 15 c9 b9 ea a0 32 ba
       -0.0019269413 -0.0013420403 -0.00038353563 -0.0006814139
000070 c6 c3 0b ba 2a 69 59 b5 50 c5 17 ba eb 33 8b b9
       -0.0005331602 -8.0991833e-07 -0.0005789595 -0.00026550828
000080 59 1c aa ba 13 ab 8f ba 78 61 87 b6 ad ea ad b9
       -0.0012978419 -0.0010961018 -4.0346604e-06 -0.00033171978
000090 01 e9 c0 b4 7b 95 07 ba c2 7e fc bb 83 88 dd bb
       -3.593232e-07 -0.00051721156 -0.0077055404 -0.006760658
0000a0 70 be eb bb b9 bc 3b bc d6 49 82 bb 43 2e 82 bb
       -0.007194333 -0.011458569 -0.003976087 -0.0039728
0000b0 1e c3 ac bb ec 61 ad bb 5a f2 d9 bd ae 3c 2d bf
       -0.005272283 -0.005291214 -0.10641928 -0.67670715
0000c0 9c 89 d8 bd 36 55 da bd ba 3a d9 bd cb 52 e2 3a
       -0.10573122 -0.10660784 -0.10606904 0.0017267106
0000d0 f5 8d 8a bb 24 00 82 ba 35 11 26 b8 04 24 b1 b4
       -0.0042283484 -0.0009918255 -3.959351e-05 -3.2995024e-07
0000e0 a2 ba 2a 35 77 46 b9 b3 49 78 58 32 68 4f 28 b4
       6.360152e-07 -8.627551e-08 1.2600204e-08 -1.5675107e-07
0000f0 eb d7 c1 34 92 09 d5 32 a6 80 15 b9 bd d5 3e b5
       3.6106152e-07 2.4800816e-08 -0.00014257673 -7.1091546e-07
000100 5c 06 97 ba 52 ed f7 ba 0a 4c a0 ba 47 33 94 b9
       -0.0011522281 -0.0018915331 -0.0012229693 -0.00028266964
000110 b6 ed fd b4 e4 de c5 b3 d9 26 01 bb 45 45 a8 ba
       -4.729788e-07 -9.214071e-08 -0.0019706993 -0.0012838027
000120 da cc db b9 7b 05 4c ba b1 0f 3b b4 6c 14 15 b5
       -0.0004192356 -0.0007782799 -1.742144e-07 -5.5536543e-07
000130 83 18 03 b9 a5 16 17 b5 5a 35 2f ba 48 e3 42 ba
       -0.00012502265 -5.6284836e-07 -0.000668367 -0.000743438
000140 1b 4f 07 34 6e 32 ca b4 b1 3c a8 b4 3c 35 01 b5
       1.2601633e-07 -3.7662124e-07 -3.1336597e-07 -4.813371e-07
000150 7f 8d 10 bc 8b da 09 bc 7a ea 02 bc 6b 46 67 bc
       -0.008822798 -0.008413921 -0.007990474 -0.01411591
000160 c3 96 69 bb c9 52 80 bb 90 27 b3 bb 2c 8e b6 bb
       -0.003564284 -0.0039161188 -0.0054673627 -0.0055711474
000170 ed 90 d8 bd 9c 89 d8 bd 56 f4 3d bf d5 22 d8 bd
       -0.105745174 -0.10573122 -0.7420095 -0.10553519
000180 2d a4 d8 bd 49 3d 00 3a 0d 84 50 bb 82 b8 15 34
       -0.10578189 0.00048919447 -0.003181699 1.394383e-07
000190 c1 5e 64 35 98 4e ee 3a 50 4f 64 3b 9c a4 9f 3a
       8.5074504e-07 0.0018181382 0.0034837313 0.0012179795
0001a0 7f 23 b7 3a 67 95 0f 3b 2e aa 5e 3b 4a 0e a9 3a
       0.0013972371 0.002190912 0.0033975947 0.0012897935
0001b0 c6 b4 e6 b8 4c 41 71 b3 b3 4e 24 bb f8 2f 1a bb
       -0.00011000926 -5.6171572e-08 -0.0025071322 -0.0023527127
0001c0 3b f9 2d ba e4 66 d0 b9 4b 09 27 b9 4e 48 11 b7
       -0.00066365645 -0.0003974951 -0.00015929823 -8.659508e-06
0001d0 db 38 aa ba c0 0c 6a ba 50 2b dd b6 5c 2d c9 b9
       -0.0012986915 -0.00089282915 -6.5913555e-06 -0.00038371503
0001e0 43 85 92 b9 fa 97 17 b5 ad 6b 56 b9 1e ca 68 b9
       -0.00027946578 -5.647304e-07 -0.00020448743 -0.00022200539
0001f0 3a 5f 14 bb 14 66 02 bb 4c 6f 16 ba f1 35 83 ba
       -0.0022639767 -0.001989727 -0.00057386304 -0.0010010583
000200 f0 fa 0c b5 81 a8 e1 b8 1b b6 aa bb 19 4b ba bb
       -5.2519226e-07 -0.00010760222 -0.005209697 -0.005685222
000210 81 fb 86 bb b9 1a 1c bc 3d 48 88 ba 1c ee 0e ba
       -0.004119337 -0.009527856 -0.0010397505 -0.0005452351
000220 d2 d3 51 bb b8 c0 13 bb 8f 58 d9 bd 36 55 da bd
       -0.0032017124 -0.002254529 -0.10612594 -0.10660784
000230 d5 22 d8 bd 5d 12 2d bf e4 b8 d9 bd c7 71 a5 3a
       -0.10553519 -0.67606145 -0.10630968 0.0012622409
000240 8a 4c 64 bb 18 91 fd b4 09 5b 52 b3 3f ed e3 3a
       -0.003483566 -4.7230492e-07 -4.897723e-08 0.001738943
000250 27 d6 52 3b f0 df bf 39 f4 a9 82 3a 7b 2c ee 3a
       0.0032171102 0.00036597205 0.0009968863 0.0018171215
000260 43 6c 56 3b 2d c8 8e 3a fe 66 59 b9 f3 ff 58 b5
       0.0032718338 0.0010893397 -0.000207331 -8.0838726e-07
000270 b6 17 15 bb 48 e0 2c bb 84 b4 9e ba e4 16 5a ba
       -0.0022749729 -0.00263788 -0.0012108241 -0.0008319451
000280 9c 6b 93 b9 03 85 43 b4 cc 2c b4 ba 28 64 1e ba
       -0.000281182 -1.820918e-07 -0.0013746261 -0.0006042146
000290 31 13 a6 b4 d7 20 4d b9 77 ea 0c b9 89 01 3a b4
       -3.0933873e-07 -0.00019562557 -0.00013438785 -1.7323158e-07
0002a0 75 1b 3a b9 f6 21 1f b5 69 fb e9 ba e4 bd e3 ba
       -0.00017748571 -5.9281535e-07 -0.0017851415 -0.0017375317
0002b0 49 00 3f b9 b4 62 1e ba 00 93 ea b3 62 63 65 b8
       -0.00018215286 -0.00060419296 -1.0923213e-07 -5.4690412e-05
0002c0 06 b4 c2 bb dc 77 e5 bb 1e 5d b6 bb 97 50 1f bc
       -0.0059418706 -0.0070028137 -0.0055652997 -0.009723804
0002d0 6c 6b e8 ba 10 01 c0 ba de bb 69 bb 0e d2 63 bb
       -0.001773221 -0.0014648754 -0.0035664956 -0.0034762654
0002e0 15 92 d9 bd ba 3a d9 bd 2d a4 d8 bd e4 b8 d9 bd
       -0.10623566 -0.10606904 -0.10578189 -0.10630968
0002f0 e1 21 13 bf 80 3a 0c 3b 8e 04 66 bb a3 9d de b4
       -0.5747357 0.0021397173 -0.003509793 -4.1465418e-07
000300 50 ff 56 b4 9c b3 e6 32 d4 81 7f 3a 52 a2 38 b4
       -2.0023185e-07 2.6857201e-08 0.0009746824 -1.7195387e-07
000310 20 4e 1d b4 35 85 3d 34 b9 82 33 3a 12 0b 8c 32
       -1.4650186e-07 1.7650457e-07 0.00068477873 1.630318e-08
000320 55 0a be b9 c2 19 2e b5 5d 76 9b ba dd 23 03 bb
       -0.00036247322 -6.4857534e-07 -0.0011860837 -0.002001039
000330 1b dc 97 ba 7c 1a 11 ba f4 ed 04 b5 6d c6 fb b4
       -0.0011585982 -0.00055352575 -4.95201e-07 -4.6896767e-07
000340 47 73 cc ba be 11 5e ba 67 13 99 b8 dc 78 e1 b9
       -0.001559832 -0.0008471272 -7.2992225e-05 -0.00043005391
000350 03 81 bd 34 0d 89 02 b5 f0 06 14 b9 e2 8d 82 b3
       3.5297862e-07 -4.862821e-07 -0.00014116964 -6.079405e-08
000360 68 2d fe b9 df e5 57 ba 05 d3 b8 34 87 b9 fd b4
       -0.00048480486 -0.00082358526 3.4426208e-07 -4.725991e-07
000370 96 12 40 b5 7c e3 d2 b4 61 de 0b bc a2 b0 2f bc
       -7.155262e-07 -3.9281065e-07 -0.008536906 -0.010723265
000380 53 b1 08 bc a9 7d 82 bc b0 77 82 bb 9f 88 8b bb
       -0.008343059 -0.01592906 -0.003981553 -0.00425823
000390 96 fe bc bb 6a 94 d1 bb 28 ca eb 3a cb 52 e2 3a
       -0.0057676537 -0.006395866 0.0017989324 0.0017267106
0003a0 49 3d 00 3a c7 71 a5 3a 80 3a 0c 3b ca 2f e0 be
       0.00048919447 0.0012622409 0.0021397173 -0.4378646
0003b0 39 36 63 bb df 06 22 bc 3e 10 3c bc fd a9 5d bc
       -0.003466977 -0.0098893335 -0.011478482 -0.013529298
0003c0 e0 dc 78 bc a5 08 65 bc 86 4e 6e bc b2 fe 76 bc
       -0.015189379 -0.013979112 -0.014545089 -0.0150753725
0003d0 e8 78 73 bc 16 16 59 bc ae ee ce ba 87 a4 2f bb
       -0.014860369 -0.013249895 -0.0015787685 -0.0026800947
0003e0 e1 05 52 3b 8f cc 94 3a 86 e0 c4 ba 08 73 db ba
       0.003204696 0.0011352467 -0.0015020526 -0.0016742656
0003f0 b7 f6 1c 34 b2 e8 07 34 33 3b d7 b8 94 57 4e 39
       1.4618387e-07 1.2657509e-07 -0.000102630256 0.00019678316

B.weight f4 [46, 46]
000000 db f5 87 bd 60 da 49 bd 50 b6 49 bd 91 b3 49 bd
       -0.0663869 -0.049280524 -0.049246132 -0.049243513
000010 b4 e9 4a bd 50 a4 14 b6 4d d1 1b ba 3a 8b ae b5
       -0.049539283 -2.214936e-06 -0.0005943969 -1.300453e-06
000020 3c a6 ff b4 77 64 45 b3 81 ed be b4 a1 66 3a bb
       -4.7618403e-07 -4.595901e-08 -3.5563065e-07 -0.002844252
000030 cf 3f 39 bb d0 fd 37 bb 26 bc 3a bb 18 cb 3f bb
       -0.0028266793 -0.0028074868 -0.0028493493 -0.002926534
000040 9f 6a 9e b9 a3 b7 4b b5 74 fc f6 b9 5c c7 9f b9
       -0.00030215547 -7.589062e-07 -0.0004710887 -0.00030475378
000050 35 85 a1 b9 62 b9 f0 b9 26 5e d7 b9 80 b5 c4 b8
       -0.0003080756 -0.00045914488 -0.00041078142 -9.379815e-05
000060 7b 36 b3 bb 38 ef b2 bb 46 7a b3 bb 13 91 b6 bb
       -0.005469141 -0.005460646 -0.0054772226 -0.0055714934
000070 25 17 ec b9 77 0c 95 b9 49 8a af b9 8f 0f bc b9
       -0.00045030672 -0.00028428782 -0.00033481632 -0.00035869746
000080 8c 1f 32 b9 47 18 27 b5 56 27 ab b9 4a d6 b4 b9
       -0.00016987155 -6.2247676e-07 -0.0003264497 -0.00034491933
000090 0c 72 80 bb 0e e8 33 bb c0 4b 13 bc 59 0a 06 bc
       -0.0039198454 -0.0027451548 -0.008990228 -0.008181178
0000a0 f8 bd fb bb 67 4d 10 bc ae ae be bb b9 80 b4 bb
       -0.007682558 -0.008807517 -0.0058191633 -0.005508509
0000b0 9e c7 2e bc 12 f3 e8 bb 60 da 49 bd 54 43 8f bd
       -0.01066771 -0.0071090544 -0.049280524 -0.06995264
0000c0 73 23 49 bd 29 49 49 bd 72 51 4a bd 25 7d 93 b7
       -0.049106073 -0.049142037 -0.04939408 -1.758204e-05
0000d0 99 70 00 ba 6c 22 f6 b9 a2 db bf b9 49 3a 36 32
       -0.0004899591 -0.00046946423 -0.00036593998 1.0607047e-08
0000e0 1b 63 b9 34 9a 82 8a bb 61 dd 8c bb 67 f0 80 bb
       3.4531044e-07 -0.0042269947 -0.0042988514 -0.003934908
0000f0 05 4f 57 bb 22 b6 8d bb 8c b4 a7 b9 1a 5b 3e b8
       -0.0032853496 -0.0043246904 -0.0003198724 -4.5384375e-05
000100 6c 26 09 ba 42 30 af b9 6a e4 c5 b9 ea 96 ef b9
       -0.00052318606 -0.00033414556 -0.0003774495 -0.00045698072
000110 57 94 d7 b9 4b 18 3e b8 77 db b0 bb 15 78 ac bb
       -0.00041118517 -4.5322155e-05 -0.005397256 -0.0052633383
000120 72 ea b0 bb f6 1d b2 bb e7 d9 e2 b9 5a 7d 6f b9
       -0.005399042 -0.0054357005 -0.0004326843 -0.00022839513
000130 a2 29 b4 b9 68 a9 74 b9 a6 2c 68 b9 23 ba 84 b5
       -0.00034363294 -0.00023332762 -0.00022141877 -9.888939e-07
000140 9d 1c 82 b6 47 22 b9 b8 d3 cb 4a bb d0 17 f2 ba
       -3.877633e-06 -8.827872e-05 -0.0030944243 -0.0018470231
000150 5f 96 28 bc 3b db 1c bc 96 41 06 bc 28 bf 1e bc
       -0.0102897575 -0.009573753 -0.008194348 -0.00968913
000160 72 e1 e1 bb 65 b9 ca bb b1 c1 34 bc b9 61 fb bb
       -0.0068933303 -0.0061866515 -0.011032508 -0.0076715616
000170 50 b6 49 bd 73 23 49 bd 8d 6a 94 bd 4c 5a 49 bd
       -0.049246132 -0.049106073 -0.072468854 -0.04915838
000180 7b f6 49 bd c5 eb 97 b7 76 86 e9 b9 de 1f 29 b5
       -0.049307328 -1.8110391e-05 -0.00044541404 -6.300378e-07
000190 ae 00 a2 34 b7 a4 6b b3 07 0e e1 33 b8 a9 5c bb
       3.0175346e-07 -5.486501e-08 1.04799305e-07 -0.0033670496
0001a0 36 37 5c bb 70 4f 60 bb 44 63 5f bb a5 7e 5e bb
       -0.0033602244 -0.0034227036 -0.0034086267 -0.0033949998
0001b0 d0 7f f4 b9 63 9d 89 b7 b6 e7 d2 b9 eb 79 67 b9
       -0.00046634534 -1.6404962e-05 -0.0004022696 -0.00022075295
0001c0 05 79 ff b9 33 c0 12 ba ea a3 f0 b9 85 f1 75 b9
       -0.00048727557 -0.0005598098 -0.00045898493 -0.00023454994
0001d0 63 7e b3 bb f9 06 b0 bb 05 1b b1 bb b9 c3 b3 bb
       -0.005477713 -0.005371925 -0.0054048323 -0.0054859784
0001e0 31 17 04 ba f9 8f 38 b9 31 6c d5 b9 09 cb d8 b9
       -0.0005038856 -0.00017601241 -0.00040707135 -0.00041350003
0001f0 ca ec 75 b9 a2 1e 00 b9 22 12 9a b9 a3 5b c2 b9
       -0.00023453232 -0.00012218443 -0.0002938668 -0.00037070838
000200 46 ae 3c bb 54 ce d9 ba bb c1 32 bc 52 71 13 bc
       -0.0028790399 -0.0016617277 -0.010910447 -0.008999186
000210 27 52 09 bc 46 48 30 bc 69 4b db bb e0 6f d9 bb
       -0.008381403 -0.010759419 -0.006692339 -0.006635651
000220 da 65 3b bc 6c 21 01 bc 91 b3 49 bd 29 49 49 bd
       -0.0114378575 -0.007881504 -0.049243513 -0.049142037
000230 4c 5a 49 bd 12 38 8f bd 36 82 4a bd 83 a9 2e b8
       -0.04915838 -0.069931164 -0.049440585 -4.1642703e-05
000240 e4 8f 0f ba 4e aa 8f b8 0e f8 42 b5 27 ad 0d b4
       -0.00054764585 -6.850493e-05 -7.26316e-07 -1.3194641e-07
000250 ed 6d a4 b4 cd 13 35 bb ba c6 37 bb e6 3f 35 bb
       -3.0627362e-07 -0.002763021 -0.0028042034 -0.0027656495
000260 da 62 3b bb 25 69 43 bb 9a 3b d7 b9 26 bf b2 b8
       -0.0028592856 -0.002981731 -0.00041052402 -8.5233056e-05
000270 69 0c 0c ba 97 39 a0 b9 1b e7 b2 b9 f7 e1 f0 b9
       -0.00053424254 -0.00030560486 -0.00034122993 -0.00045944724
000280 01 b4 10 ba 59 12 66 b9 ec 9a b2 bb 4e e9 b0 bb
       -0.0005519987 -0.00021941344 -0.005450597 -0.005398906
000290 db 10 ae bb 64 b5 b3 bb f5 9b dc b9 1b be 3f b9
       -0.005312068 -0.00548427 -0.00042077867 -0.00018285999
0002a0 44 b8 af b9 7e d9 96 b9 e4 d0 85 b9 fb e6 c3 b8
       -0.0003351589 -0.00028772274 -0.00025523372 -9.341348e-05
0002b0 57 44 80 b9 74 90 9e b9 a9 d4 42 bb c9 2a 08 bb
       -0.0002446498 -0.00030243734 -0.0029728806 -0.0020777455
0002c0 e1 f9 01 bc 06 38 f6 bb fc be f3 bb 92 a0 f3 bb
       -0.007933111 -0.0075140027 -0.0074385386 -0.007434913
0002d0 5d 5e c0 bb 8b 58 ba bb 72 f9 1b bc 54 3d e5 bb
       -0.005870624 -0.0056868247 -0.009519922 -0.0069958363
0002e0 b4 e9 4a bd 72 51 4a bd 7b f6 49 bd 36 82 4a bd
       -0.049539283 -0.04939408 -0.049307328 -0.049440585
0002f0 99 6f 88 bd 5b 6e e3 b5 e0 ce 55 ba cc dc 21 ba
       -0.066619106 -1.6944936e-06 -0.0008156132 -0.0006174564
000300 8e de c9 b7 43 c4 bf 34 3e 07 07 34 22 4e 95 bb
       -2.4064702e-05 3.5719322e-07 1.257549e-07 -0.0045564333
000310 df 7a 90 bb b9 c4 8b bb 9e fe 7e bb 25 ef 8a bb
       -0.0044091786 -0.0042653945 -0.0038909088 -0.004239934
000320 2b 69 ac b9 90 1d 3c b9 6d e6 bb b9 d4 a0 8d b9
       -0.00032884753 -0.0001794009 -0.000358391 -0.00027013442
000330 6a 0f 00 ba c1 6c 10 ba 1d 76 96 b9 a0 b1 a4 b8
       -0.00048851094 -0.00055093697 -0.0002869823 -7.8532146e-05
000340 97 10 ba bb 96 94 af bb 70 d7 af bb 24 de b4 bb
       -0.005678247 -0.005358289 -0.0053662583 -0.0055196453
000350 e1 3c 07 ba ba 69 b2 b8 62 40 a1 b9 cf 8e c1 b8
       -0.0005158913 -8.5073945e-05 -0.00030756282 -9.229557e-05
000360 14 f6 32 b9 b2 f8 5b b5 f2 68 8a b4 ee 08 b8 b8
       -0.00017067074 -8.1945757e-07 -2.578086e-07 -8.775467e-05
000370 4c 76 7c bb c7 32 f9 ba 2c 7a 7a bc 78 25 4a bc
       -0.003852266 -0.0019012325 -0.015287917 -0.012338035
000380 bd b3 27 bc ae 64 69 bc dd b0 13 bc 90 45 f9 bb
       -0.010235724 -0.014245195 -0.009014335 -0.0076071694
000390 94 b0 5f bc c3 32 1c bc 50 a4 14 b6 25 7d 93 b7
       -0.013652939 -0.009533587 -2.214936e-06 -1.758204e-05
0003a0 c5 eb 97 b7 83 a9 2e b8 5b 6e e3 b5 09 48 9f bd
       -1.8110391e-05 -4.1642703e-05 -1.6944936e-06 -0.077774115
0003b0 5a 8c e3 b9 ff fc 04 ba 9f b1 28 ba 63 a0 2a ba
       -0.00043401384 -0.00050731 -0.0006435159 -0.0006508885
0003c0 e6 13 46 ba 48 79 6e ba 73 e4 5f ba 08 d4 74 ba
       -0.00075560657 -0.0009097052 -0.00085408165 -0.00093394564
0003d0 4d 08 73 ba af ea 63 ba e6 1a 6f b9 69 0f ca b9
       -0.0009270951 -0.00086943334 -0.00022802837 -0.00038539924
0003e0 bb 40 d6 37 02 b4 2f 35 10 1d b4 b9 e0 e9 82 b9
       2.554093e-05 6.5454526e-07 -0.0003435393 -0.00024969783
0003f0 81 30 01 b9 e7 81 6e b9 68 56 dd b9 da f7 aa b8
       -0.00012320468 -0.00022745841 -0.00042216782 -8.152398e-05

Layer1.weight f4 [92, 138]
000000 82 4a 27 39 b1 68 cc 3a fa 9c 97 ba dc 2d 9f 3a
       0.00015954117 0.0015595165 -0.0011567168 0.0012144404
000010 7c 54 a9 3a 7a 71 2b bb cd 62 e2 3b 8b 22 29 bb
       0.0012918855 -0.0026160167 0.0069087506 -0.0025807943
000020 64 77 23 bb d0 a8 a5 bb 80 4d d7 bb 12 15 58 bb
       -0.0024942989 -0.0050555244 -0.006570518 -0.0032971543
000030 8e f5 87 bb 68 39 ca bb fa ee 71 bb cc 64 76 3b
       -0.0041491454 -0.006171394 -0.0036916123 0.00375967
000040 ca 31 d0 39 17 ca 2f 3b 9b 46 1f bc 9a aa 71 ba
       0.00039709947 0.0026823336 -0.0097214235 -0.0009218842
000050 c1 5f 46 ba b9 3a 52 3a 96 a6 99 39 49 e0 36 ba
       -0.0007567369 0.00080196146 0.0002930655 -0.000697617
000060 8b f9 ad ba aa 89 ae bb 38 a8 26 39 be b8 66 3a
       -0.0013273222 -0.0053264694 0.0001589366 0.00088013324
000070 38 8b 3b bb 31 d4 a9 ba 87 b6 0c 3b 1c 97 9b bb
       -0.0028616916 -0.0012956915 0.00214711 -0.0047482383
000080 0d 39 97 3b 2e 6c 2a 3c c8 45 02 3c 97 78 ce 3b
       0.0046149553 0.010401769 0.007951207 0.0063009965
000090 65 27 bd 3b 54 0e 93 3b f7 07 32 3c 03 dd 57 bc
       0.0057725185 0.004487792 0.010866157 -0.013175252
0000a0 e6 19 82 bc 58 08 02 bd 52 49 c6 3b c2 cd ed bb
       -0.01588149 -0.03174624 0.006051221 -0.0072571943
0000b0 bb 2b 85 3c 35 e1 3a bc 68 a0 05 bb 79 33 12 bb
       0.016256204 -0.011406233 -0.00203898 -0.0022308512
0000c0 70 4f 6c ba 98 58 8b ba 11 93 dd ba 78 af 2d 39
       -0.00090145227 -0.0010631261 -0.0016904791 0.00016563933
0000d0 8b b1 39 b9 eb 46 85 3a f4 9a 24 3b 44 6c 4a 3b
       -0.00017709115 0.001016823 0.0025116773 0.0030887285
0000e0 58 88 08 3b d8 21 14 3b c6 db d2 3b 39 a2 a4 3b
       0.002083322 0.002260318 0.0064348904 0.0050242213
0000f0 1f 73 a2 3b 43 cc c0 3b 23 4d af ba 23 ff 9e 38
       0.004957571 0.005883725 -0.0013374429 7.58155e-05
000100 4f ac 7a 3a 9b 4c 06 3b 5d 74 31 ba 0e 36 8b ba
       0.0009562419 0.0020492438 -0.00067693536 -0.0010620968
000110 cf d4 0d bb 72 92 a7 b9 38 6b 07 3a 46 78 e3 ba
       -0.0021641736 -0.00031961832 0.0005165818 -0.001735457
000120 3c 7b 53 bb dd 88 2c bb d7 05 1b 3b ab eb f0 ba
       -0.0032269498 -0.0026326694 0.0023654604 -0.0018380781
000130 5c 89 c9 ba 0f ed 27 bb 72 a8 fa 3b 5f 79 0a 3c
       -0.0015376019 -0.0025623476 0.007649475 0.008451789
000140 03 ba d8 3b 8b 13 7f 3b db 9c 9b bc 99 fe 9b bb
       0.006613971 0.003892156 -0.018995693 -0.004760575
000150 b0 ca 0e 3c af a1 2a bc 66 00 03 bd 95 20 ab 3b
       0.008715317 -0.010414525 -0.0319828 0.00522239
000160 4f eb 05 bc 46 91 9b bc 59 3f 59 bb 53 4f e8 bc
       -0.008173778 -0.01899017 -0.003314933 -0.028358137
000170 8e 41 b4 bb 39 0d 9e bb 9a 79 03 bc e2 c0 b4 bb
       -0.005500979 -0.0048233536 -0.008024598 -0.0055161575
000180 d6 29 05 bc 8e 5e 06 bd 95 e1 23 bc 32 17 a9 bb
       -0.00812765 -0.032805018 -0.010002513 -0.005160236
000190 64 b0 63 bc 51 ba 8f bc 31 c2 77 bc 22 26 5e bc
       -0.013897035 -0.017544897 -0.015121982 -0.013558896
0001a0 3e d0 7e bc 58 cf ee bb c2 1e 10 bc bb 3c a3 bc
       -0.0155525785 -0.007287901 -0.008796396 -0.01992642
0001b0 6d 09 99 bb dc 61 aa bb 8b d3 1f 3c c1 10 f6 3b
       -0.004670313 -0.005199654 0.009755026 0.0075093214
0001c0 35 71 cf bb 7a eb a8 bb cf 5f 82 3b f5 e4 76 3b
       -0.006330634 -0.005155024 0.0039787064 0.003767309
0001d0 9d d4 a3 ba 8a 97 e8 3a c5 c7 d3 3a 01 58 c3 3a
       -0.0012499277 0.0017745357 0.0016157558 0.0014903547
0001e0 3c 8e 0f bb 3a 21 93 ba a1 ed 1f bb f9 d5 d9 ba
       -0.0021904847 -0.0011225112 -0.0024403112 -0.0016619555
0001f0 8d 40 c8 3c 1a 16 c9 3c 86 73 84 3c 02 7a a3 3c
       0.024444843 0.024546672 0.016168367 0.019955639
000200 a8 41 4b bb 53 71 c7 bb 8c ad 36 3a 8d 4e 1f bb
       -0.0031014476 -0.0060865073 0.00069686095 -0.0024308295
000210 b3 f9 40 bc f5 38 c1 3b e4 97 b4 bb 1b a0 9a bc
       -0.011778283 0.0058966824 -0.005511271 -0.018875172
000220 55 76 1d bc 96 a4 fd bb c6 96 63 3a a2 2e e0 3a
       -0.009610732 -0.0077405674 0.000868183 0.0017103741
000230 7d 6a 8c ba 7c 7d e8 3a 05 0e ad 3a 89 ed a0 ba
       -0.0010712888 0.0017737593 0.0013203031 -0.0012277822
000240 74 3a 89 3b 24 18 89 ba f1 7d 29 bb 40 04 ce bb
       0.0041878764 -0.0010459465 -0.002586242 -0.0062871277
000250 69 82 e5 bb fd 08 76 bb 11 85 28 bc 8e 6d c7 bb
       -0.0070040715 -0.0037541979 -0.010285632 -0.006086058
000260 34 81 0c bb c5 26 b3 bb 9d 68 e9 b9 6d e2 2b 3b
       -0.0021439316 -0.005467268 -0.00044519166 0.002622749
000270 7b 8f 3c bc 75 c8 35 bb 19 c1 cd ba 13 ac e9 39
       -0.011508818 -0.002773789 -0.0015697806 0.00044569428
000280 91 9f a3 39 bf 07 f0 ba a8 36 b5 39 da d1 1d bb
       0.0003120867 -0.0018312855 0.00034563732 -0.002408138
000290 2b 3f ba 3a 3c 11 dc 38 44 37 3a bb 7c 9c 96 3a
       0.0014209499 0.000104936276 -0.0028414289 0.0011490728
0002a0 ed 9d 0f 3b e0 d6 51 bb a2 ed af bb 1e ce e3 ba
       0.00219142 -0.0032018945 -0.005368904 -0.0017380153
0002b0 44 16 96 bb a7 f6 6e bb 91 38 1d bb b3 fb 09 bb
       -0.004580291 -0.0036462934 -0.0023990015 -0.0021054565
0002c0 fc 49 9d 39 83 4a 5d bc f2 5f 21 bc 60 c8 dc bc
       0.00030000496 -0.0135065345 -0.009849535 -0.026951015
0002d0 57 64 12 3a 7b 1c cd bb ab 20 cd 3b d2 4a 1c bc
       0.000558441 -0.0062594987 0.006259998 -0.009539323
0002e0 27 f4 cc b8 45 a9 28 ba 85 24 0e b9 19 4a 55 3a
       -9.772955e-05 -0.00064339145 -0.0001355578 0.00081363466
0002f0 f9 e9 98 3a 99 81 3f bb ca a9 14 3a 43 fc 1b 3b
       0.0011666409 -0.0029221533 0.00056710525 0.0023801483
000300 82 48 29 3b e6 c2 c4 3a 00 64 96 3a 96 da 86 3b
       0.0025830572 0.0015011698 0.0011473894 0.004115413
000310 05 45 8b 3b 27 26 d8 3b 1d a1 d0 3b 67 c3 5e 3b
       0.004250171 0.006596345 0.0063668624 0.003399098
000320 5b 05 78 ba 0b d2 0d 3b 6d 8f 82 bb e8 f4 85 ba
       -0.0009461247 0.0021640088 -0.003984383 -0.0010220082
000330 ba 83 98 ba de 0d 73 b9 32 fb 4b bb 19 de 09 38
       -0.0011635937 -0.00023179452 -0.0031125066 3.287019e-05
000340 f8 96 97 3a c6 45 82 ba 5a 80 60 b9 fc d1 41 ba
       0.0011565378 -0.0009939007 -0.0002141012 -0.0007393656
000350 c2 d9 c3 ba 08 61 e0 39 af 04 19 ba 04 19 92 ba
       -0.0014942216 0.00042796903 -0.0005837185 -0.0011146371
000360 ac a1 95 ba 97 f2 b4 ba 87 80 a9 ba 89 05 92 ba
       -0.001141598 -0.0013805208 -0.0012931981 -0.0011140566
000370 6a b3 25 bc d7 d7 db bb 9b 52 3f 3c 5c 7e cf 3a
       -0.010113576 -0.0067090797 0.0116774095 0.0015830505
000380 8f ae 21 bc 18 4f 4d 3c d2 3a b7 3b 11 11 86 bb
       -0.009868278 0.012531064 0.0055917287 -0.00409139
000390 3c 7e b9 3b 58 82 eb bb e9 c9 cc ba ed 06 0d bb
       0.0056608003 -0.007187169 -0.0015624139 -0.002151902
0003a0 c2 59 90 bb e3 eb 1d ba 5a 4c 66 bb ac ce e4 bc
       -0.004405231 -0.00060242246 -0.0035140724 -0.02793058
0003b0 0b 50 21 bc 46 d6 0d bc 93 c6 98 bc 8e f8 c6 bc
       -0.009845744 -0.008657044 -0.018649375 -0.024288442
0003c0 bd 2b b3 bc 61 6c ec bc 82 ae 05 bd a0 fb be bc
       -0.021871442 -0.028860273 -0.032637127 -0.023313344
0003d0 28 2a c7 bc 50 79 17 bd e1 29 8c bb 63 ad 36 bb
       -0.024312094 -0.036980927 -0.0042774533 -0.0027874343
0003e0 d8 45 32 3c 6d 30 3c 3c 1e d2 86 bb 3b 4f 5c bb
       0.01088091 0.011486155 -0.0041144034 -0.003361656
0003f0 f8 1b 36 3b e0 65 d5 3a 4e ff 83 bb 25 19 97 bb
       0.0027787667 0.0016280971 -0.0040282374 -0.0046111518

Layer1.bias f4 [92]
000000 b9 c6 69 bb cb 61 97 bc 6e bc 03 bc 01 4b 15 bd
       -0.0035671426 -0.018479249 -0.008040531 -0.036448482
000010 b9 19 d3 bc b6 c4 be 3b 56 52 e2 bb e6 60 4f 3c
       -0.025769101 0.0058217896 -0.006906788 0.01265738
000020 5b 0a 88 3d 99 47 82 3b 5b 2a ec 3b c8 a6 4c 3d
       0.066426 0.0039758203 0.0072071976 0.049963742
000030 3b 8c 1d bd 59 38 32 3d 3a 1c 3d 3d 0f 1e 2e bc
       -0.038463812 0.04351077 0.046169497 -0.010627284
000040 46 58 70 3d 65 8d 96 bc fb 96 a7 bc 6c 51 4e 3d
       0.058677934 -0.018377969 -0.020457735 0.05037062
000050 30 70 9b 3c 89 ef 05 3c 8b 98 74 bd 16 24 01 3d
       0.018974394 0.008174785 -0.05971579 0.031528555
000060 5f c7 74 3b 95 66 0f bd 71 60 00 3c 89 42 51 3d
       0.003735028 -0.03500994 0.007835493 0.051088843
000070 04 16 6e 3c bc bf 97 bc e6 6d 8a 3b 4d 76 06 bc
       0.014531616 -0.018524043 0.0042245267 -0.008206916
000080 64 a9 2e 3d 4e 5e a0 3c 0d 54 b4 3b b2 75 e0 3b
       0.042642012 0.019576218 0.0055031837 0.006849968
000090 ed 6c 54 bd 81 32 b7 bb b4 a5 b3 3c 81 58 af bd
       -0.051861692 -0.0055907373 0.0219296 -0.08561803
0000a0 5e b0 d9 bb 07 9c ab 3d ce e9 7b 3c 88 b1 b9 3c
       -0.006643339 0.08379369 0.015375568 0.022667661
0000b0 b2 36 6d bb 14 96 fa 3b 76 ff 89 bd 47 ce ad bc
       -0.003619593 0.0076472852 -0.067381784 -0.021216525
0000c0 54 a5 6f 3b fc a5 ee 3b 8d 96 0b 3d e6 66 f9 bc
       0.003656705 0.0072829705 0.034079123 -0.030444574
0000d0 6c 2a 87 3b 77 1b ea bc a1 38 59 bd 7e 76 30 bc
       0.00412493 -0.02857755 -0.05303252 -0.010770438
0000e0 91 27 3a bd a6 9d af 3b 1b a7 95 bb d7 b6 24 3d
       -0.04544789 0.0053593693 -0.0045670397 0.040213432
0000f0 d7 71 d1 3c f4 96 e6 3b 2d 06 34 3c cf f8 a4 3b
       0.025566978 0.007037038 0.010987801 0.005034543
000100 8f 4e a9 bd ab d1 99 bc cf ee 80 bd e8 6f 06 bd
       -0.08266937 -0.018776735 -0.06295549 -0.032821566
000110 56 14 02 3c 39 1a a8 3d 9e f2 40 3d 66 3c 55 bc
       0.007939419 0.082081266 0.047106378 -0.013014888
000120 92 56 2b 3b 10 a9 3e 3d c6 c3 09 3c e9 45 81 bd
       0.002614413 0.04654795 0.008408492 -0.063121624
000130 2a 88 dd bb 74 6a 55 3c 0c 3d 7d bb 02 ce 99 3d
       -0.006760617 0.013025869 -0.0038641123 0.07509996
000140 92 59 85 3d c4 fd f2 bc af 4e 65 3d bb 3d 94 bd
       0.06511225 -0.02966202 0.05598324 -0.07238337
000150 e2 fe fe bc 60 86 52 3c 82 d2 ee bb f2 50 8c 3d
       -0.031127397 0.01284942 -0.007288278 0.068513766
000160 b5 5e 0e 3d 70 c7 05 bc d7 bd ad 3d d6 ad 4e bd
       0.03475829 -0.008165225 0.08483475 -0.05045875

Layer2.weight f4 [46, 92]
000000 c1 5d ab 3b b8 6c b0 b9 eb 29 23 bb 0a 3a 07 bc
       0.005229682 -0.00033650338 -0.0024896811 -0.008253584
000010 17 f9 86 bb 71 55 bd bb 0a e9 bc b9 58 1a 3c bb
       -0.0041190493 -0.0057780077 -0.00036031782 -0.0028702226
000020 5d c3 9a bb a0 1a 3f 3c 23 0a b0 bb ac c2 af 3b
       -0.004722996 0.011664063 -0.005372302 0.005363783
000030 ad c3 fa bb a3 bd b8 3b c7 45 be 3b 7a 87 7f 3b
       -0.007652721 0.005637841 0.005806658 0.0038990662
000040 d4 be f8 3a 00 97 92 b9 a7 ea bc ba 16 da ac 3b
       0.001897777 -0.00027959794 -0.0014413194 0.0052750213
000050 1a 0e 21 3a 5a d7 3b 3b ee d6 a2 ba ce c4 f5 3b
       0.0006143764 0.0028662295 -0.0012423673 0.0075002676
000060 f5 b9 34 bb 8c 51 07 bc 69 05 d9 3b a8 28 a7 3b
       -0.002757666 -0.008259188 0.0066229594 0.005101282
000070 cb 6b f4 ba e7 84 bd b9 bb 24 3f 3c 7b 8b a3 3b
       -0.0018647847 -0.0003614791 0.011666472 0.0049909926
000080 3c 88 b6 3b 7a 48 79 3a 4c 5f 09 3b 73 b0 17 3a
       0.0055704396 0.0009509396 0.0020961342 0.0005786486
000090 ca 3a a0 bb b4 54 14 bb 02 35 13 3b 7f 69 5f 3c
       -0.0048898207 -0.0022633495 0.0022462015 0.013635992
0000a0 0c f0 a9 ba df 75 28 bc 28 87 b7 ba e4 04 2d 3b
       -0.0012965216 -0.010282009 -0.0014002072 0.002640062
0000b0 87 5e b0 3b b6 05 b6 3a d7 16 bf 3b 77 ac f3 ba
       0.0053823623 0.00138872 0.00583158 -0.0018590827
0000c0 cd b4 7a bb 1a 28 af bb 7d c1 05 3c 4a 4c e2 bb
       -0.0038254738 -0.0053453567 0.008163807 -0.006906067
0000d0 e1 3e be bb fb fe a4 bb e5 2d 94 bb 06 f4 7a 3b
       -0.0058058356 -0.005035279 -0.0045220726 0.0038292422
0000e0 40 0a be bb b6 f9 9d 3a ac 4d f3 ba 3e a2 d3 3b
       -0.0057995617 0.0012052569 -0.0018562577 0.0064585498
0000f0 e8 56 84 3b 44 43 b1 b9 2a f1 73 bb 61 36 c1 bb
       0.0040386803 -0.00033810188 -0.0037222602 -0.005896375
000100 a3 37 11 3c df f0 03 ba db d3 a1 3a a2 51 02 bc
       0.0088633625 -0.0005033146 0.0012346463 -0.007954033
000110 34 b7 87 ba d0 0e 0f bc e7 03 bd 3b 50 c1 2f 3b
       -0.0010354281 -0.008731559 0.0057682875 0.0026818104
000120 8d 88 8e 3b 76 f8 bd 3b 08 62 93 ba 73 1a b5 3a
       0.004349774 0.005797441 -0.0011244426 0.0013817087
000130 de ff 75 ba b9 5e 2f bb 97 38 73 ba d1 35 39 bc
       -0.00093841355 -0.002675934 -0.0009278147 -0.011304335
000140 c3 1e 58 bb 1a 27 cf bb c0 9d 5a 3b 2f 8d 32 3c
       -0.003297732 -0.0063218 0.0033358186 0.010897919
000150 44 4d ef bb 79 7b 35 bb 60 9d 01 bc 72 8f eb bb
       -0.007302912 -0.0027692004 -0.007911056 -0.007188731
000160 5f f9 06 3c 24 e4 28 3a 69 03 4d bc f8 30 ac bb
       0.008238166 0.0006442687 -0.01251302 -0.005254861
000170 e1 fb 7f 3b 39 f5 67 ba 84 41 23 bb 62 b5 c9 bb
       0.0039060044 -0.00088484917 -0.0024910877 -0.0061556557
000180 65 31 69 bb 5f ac 82 bb 99 94 74 ba 9e 8f b8 ba
       -0.003558242 -0.0039878334 -0.0009330004 -0.0014080887
000190 cf 08 07 bb 91 10 23 3c f8 55 67 bb 2c 94 84 3b
       -0.0020604616 0.00995268 -0.0035299044 0.004045984
0001a0 10 10 be bb 0f 2f 8f 3b b3 6e 91 3b 6e 21 11 3b
       -0.0058002546 0.0043696235 0.004438245 0.002214517
0001b0 3b f1 e1 3a 0e ab 5d ba fd c1 d7 ba 1a 5d 82 3b
       0.001723803 -0.000845597 -0.0016461011 0.0039783837
0001c0 25 1a 8d 3a 07 f4 3d 3b c1 f0 ac ba e3 a2 ac 3b
       0.0010765238 0.0028984563 -0.0013194309 0.005268441
0001d0 dc 09 47 bb 33 19 c8 bb 58 f0 d9 3b e9 3f 7c 3b
       -0.0030370867 -0.0061065196 0.0066509657 0.0038490242
0001e0 3d 14 2e ba 93 79 6c ba 62 f0 23 3c 05 08 4f 3b
       -0.0006640589 -0.00090208015 0.010006042 0.0031590473
0001f0 9b 9e 8d 3b ab 7b ab 3a 93 f5 4c 3b a5 7e a2 3a
       0.0043218858 0.001308312 0.0031274303 0.0012397362
000200 df 32 72 bb 63 d2 ab 3a 01 69 10 3b 38 78 aa ba
       -0.003695659 0.0013108965 0.0022035243 -0.0013005799
000210 72 24 0a bb 71 8a e7 3a 3d 1b ad b9 db 7c 22 3b
       -0.0021078852 0.001766516 -0.00033017425 0.0024793658
000220 65 81 83 3b e3 ab b7 3a c9 ed 2b 3b 3d 95 fd ba
       0.0040132278 0.0014013018 0.002623426 -0.0019346845
000230 22 2e 50 bb 5b 8a 65 bb 39 4b c4 3b 4a f4 9d bb
       -0.0031765779 -0.0035025093 0.0059904126 -0.0048203813
000240 42 4e 8b bb 0d 30 73 bb 89 34 61 bb 44 69 0d 3b
       -0.0042512724 -0.0037107498 -0.0034363589 0.0021577636
000250 e7 db 91 bb 6b 93 b4 3a 3e 7f 4f bb 42 31 a2 3b
       -0.004451263 0.0013776844 -0.0031661536 0.0049497196
000260 b0 27 65 3b c3 ac fc 3a ab c3 07 bb 3d 0c 89 bb
       0.0034966283 0.0019277561 -0.0020715992 -0.004182367
000270 70 a3 f6 ba 0f 11 83 ba 89 b5 1b 39 02 0b bb bb
       -0.0018817019 -0.0009999591 0.00014849579 -0.0057080993
000280 f9 ca 05 3b b3 c0 df 3a f3 c5 8f 3b da ed a5 3a
       0.002041517 0.0017070979 0.004387611 0.0012659386
000290 e8 18 f0 b9 36 e7 90 3b 8b 38 c9 3a d7 22 74 39
       -0.00045794924 0.0044220937 0.0015351934 0.00023282632
0002a0 0d 88 dd ba 06 5a a5 ba 7b 46 40 bb 4b e7 50 bb
       -0.0016901508 -0.001261533 -0.0029338885 -0.0031876143
0002b0 1d b8 aa ba 36 5e 91 bb 13 00 2d 3b 90 0b 8d 3b
       -0.0013024841 -0.0044362796 0.002639775 0.004304357
0002c0 b1 75 a7 bb d5 8c ae ba 9d a8 fa bb cb 5d 56 bb
       -0.0051104655 -0.0013317118 -0.007649495 -0.0032709714
0002d0 dd 49 c7 3b 66 bd 56 ba cd 85 bb 3a 74 dd 81 bb
       0.0060818032 -0.0008191675 0.0014306844 -0.003963167
0002e0 c8 82 12 3b 1a 5f 89 ba c6 80 26 ba 5d 07 aa bb
       0.0022355784 -0.0010480613 -0.0006351586 -0.005188866
0002f0 1a 4b 47 bb 1a 2b 15 bb 24 fc 6e 3a 0c cc 0c ba
       -0.0030409754 -0.0022761286 0.00091165514 -0.00053709815
000300 23 6e 0c bb 2a a4 0b 3c c5 86 00 bb ef d7 61 3b
       -0.0021427951 0.0085230265 -0.001961158 0.0034460982
000310 c0 db 98 bb 7b fa 65 3b 09 b9 74 3b 45 4c 8d 3a
       -0.004664868 0.0035091925 0.0037341735 0.0010780176
000320 ae bb b1 3a ba b3 85 ba 4b 93 d1 ba 87 13 5e 3b
       0.0013559961 -0.0010200657 -0.0015989331 0.003388615
000330 67 5f 9b 3a 56 b8 89 3a 36 a3 80 ba 7c 53 8c 3b
       0.0011853994 0.0010507207 -0.0009814266 0.004282413
000340 5a 8a c5 ba 9d aa ab bb eb 7c 8d 3b a4 c6 56 3b
       -0.0015071139 -0.0052388445 0.00431787 0.0032772208
000350 71 4c 08 b8 6f fa 8a ba 4c 35 0b 3c 20 34 e0 3a
       -3.249612e-05 -0.00106032 0.008496594 0.0017105378
000360 07 6a 5c 3b 82 4c b1 3a 68 5c ea 3a 81 9b 0d ba
       0.0033632533 0.001352683 0.0017880322 -0.0005401895
000370 66 04 4e bb 94 eb f3 39 72 d7 03 3b 38 5a 62 bb
       -0.0031435727 0.0004652409 0.002011743 -0.0034538638
000380 8f 7b 07 ba 85 d8 87 3b 5e 1e 4e 39 d9 6b 11 3b
       -0.0005168253 0.004145684 0.00019657004 0.0022189526
000390 bb 7f 17 3b 15 50 10 ba 1e 0e 2d 3b cc 74 ed ba
       0.0023116905 -0.0005505097 0.002640612 -0.0018116473
0003a0 86 0e e3 ba 6a 9c fe ba 97 f1 a8 3b ae 91 70 bb
       -0.0017323054 -0.0019425277 0.005155753 -0.0036707926
0003b0 0d 18 22 bb 81 db 1e bb 2c 02 3f bb 99 52 88 3a
       -0.0024733574 -0.0024239721 -0.0029145582 0.0010400593
0003c0 67 b9 73 bb c3 51 13 3b 51 71 08 bb 23 97 74 3b
       -0.0037189366 0.0022479154 -0.0020819495 0.003732153
0003d0 a2 42 44 3b ff b8 44 3b 04 c3 80 ba 93 43 1e bb
       0.0029946943 0.0030017493 -0.0009823744 -0.0024149164
0003e0 42 62 9d bb f9 29 94 ba 8d 1d ca 39 64 f9 9e bb
       -0.004802973 -0.0011304013 0.0003855046 -0.004851507
0003f0 da 6f 52 3b 0a c6 9a 3b 83 5a 73 3b af 52 e7 39
       0.0032110126 0.004723315 0.0037132807 0.00044121357

Layer2.bias f4 [46]
000000 b4 8b 3a 3d 8b 66 21 3c f6 6a 0c bc ba 45 04 3c
       0.045543388 0.009851108 -0.008570423 0.008073265
000010 69 4f 68 3d 99 6c e4 3c 77 54 a6 3c 17 92 00 bd
       0.056716356 0.027883815 0.020303948 -0.031389322
000020 ff b2 b3 bd 6d ca bc bd 4d 06 d1 bd cc 5e 2b be
       -0.08774375 -0.09218297 -0.1020628 -0.16735381
000030 ff c3 05 be 61 9c 26 be b2 db 13 be 2f c7 2b be
       -0.13063048 -0.16270591 -0.14439276 -0.16775201
000040 de 6a 7d 3c c2 66 9f bb d0 15 bb 3d 6d 16 38 3d
       0.015467374 -0.0048645446 0.0913502 0.044943262
000050 95 dc b0 ba a8 60 bd 3c 56 55 86 3c dc 42 3d 3c
       -0.0013493473 0.023117378 0.016398113 0.011551585
000060 01 a4 50 bc bf 90 ed bc 24 50 3b bc 84 53 e1 bc
       -0.012734414 -0.028999684 -0.011432681 -0.027505644
000070 2b b4 66 bc be 58 81 bc 27 74 d1 bb fe 8d 04 3d
       -0.014081041 -0.015789386 -0.0063920203 0.032361977
000080 2e 00 b1 3d 51 8b 25 3d ac 97 99 3d ee a7 a1 3d
       0.086426124 0.040416066 0.07499632 0.07893358
000090 c1 87 ca 3c f9 f2 74 3d d7 cf 3a be 0c d1 ee bd
       0.024722936 0.05980203 -0.18243347 -0.11660966
0000a0 bf d9 b4 bd 44 07 e3 bd f1 56 25 be cd ee e8 bd
       -0.08830594 -0.1108537 -0.16146447 -0.11373673
0000b0 37 8d e8 bd 02 05 f0 bd
       -0.113550596 -0.11719705

Total_load_adjust1.weight f4 [92, 94]
000000 d1 1e cc 3a ec 72 02 3a ca 51 32 3a 55 c4 13 3a
       0.0015573149 0.0004976231 0.00068023487 0.0005636861
000010 bc 7a bb 39 ea 09 07 3a dd 11 45 3a 65 21 81 ba
       0.00035758864 0.00051513186 0.00075176154 -0.0009851871
000020 36 7b 58 3a 60 a3 13 3a 2c 00 7a 39 e5 25 d9 b7
       0.0008258106 0.000563195 0.00023841922 -2.5886062e-05
000030 4a d6 d1 b9 dd 76 dc 39 02 49 fb 39 c7 47 66 39
       -0.00040023244 0.0004205023 0.00047928846 0.00021961248
000040 5f 08 4c 38 b4 9d f9 39 2f b1 0b ba ff 4a 34 ba
       4.8645186e-05 0.0004761048 -0.00053288316 -0.00068776304
000050 9c 05 5a 37 27 95 b3 38 87 f4 a9 b9 97 7a 9b b9
       1.2995119e-05 8.563167e-05 -0.0003241638 -0.0002965524
000060 5e fc a0 b9 4c 4a e7 b9 0d 5e f8 b8 b7 15 1d b9
       -0.00030705606 -0.0004411511 -0.0001184308 -0.00014980776
000070 ce e3 e4 b9 78 bf a7 b9 af 32 43 38 f3 61 a8 b9
       -0.00043657277 -0.00031995378 4.6538826e-05 -0.00032116435
000080 92 c1 ad b9 eb ed 96 b9 ac aa 87 ba da 1b b0 ba
       -0.00033141352 -0.00028787492 -0.0010350547 -0.0013436035
000090 a3 0b 5e b9 10 03 86 ba 8d 2e 25 b8 d6 af 97 38
       -0.00021175905 -0.0010224301 -3.938242e-05 7.232993e-05
0000a0 c9 c3 0f 3a 2b ce 4e 3a cc c4 3d 3a ec b6 5b 3a
       0.00054841914 0.0007888998 0.0007239103 0.00083814445
0000b0 fc 09 bb 39 db 56 f9 39 b9 e3 cf 39 49 db 34 3a
       0.00035674858 0.00047557693 0.00039651783 0.0006899131
0000c0 f2 2a 38 39 b6 50 12 39 70 92 fb 38 06 69 fe 38
       0.00017563606 0.00013953712 0.00011995889 0.00012131226
0000d0 1f 4d cc 38 70 bf 9b b9 b4 3f 9d b9 28 70 95 b9
       9.741843e-05 -0.00029706536 -0.00029992836 -0.00028503058
0000e0 cf cc f5 b9 e3 91 09 ba 27 46 0f ba 72 a3 88 ba
       -0.00046882636 -0.0005247874 -0.00054654706 -0.0010424687
0000f0 df f9 96 ba 51 17 8a ba 8b 9a 8c ba f5 94 95 ba
       -0.0011518559 -0.0010535513 -0.001072721 -0.001141219
000100 c1 9f 6b b9 c5 a4 27 b9 3c 5e 23 b9 f2 30 a1 b8
       -0.0002247086 -0.00015987743 -0.00015579996 -7.686195e-05
000110 11 c1 e5 b8 28 ba f8 b8 33 60 5c b9 d9 35 16 b9
       -0.00010955532 -0.00011860236 -0.00021016672 -0.00014325175
000120 95 aa 9a b9 89 04 ca b9 d7 40 cb b9 30 e7 c1 b9
       -0.00029500262 -0.0003853182 -0.00038767487 -0.00036984077
000130 24 da fa b8 00 66 1e b9 12 6a 0f b9 89 81 61 b9
       -0.00011961561 -0.00015106052 -0.00013677057 -0.00021505928
000140 a1 46 a4 b9 f3 79 c6 b9 64 d0 26 b9 d1 fb 94 b9
       -0.0003133314 -0.00037856362 -0.00015908625 -0.00028416378
000150 d8 51 2b 3a ea d8 c1 39 a8 27 42 3b 42 37 fe 3a
       0.0006535328 0.00036973442 0.0029625688 0.001939513
000160 10 20 6e 3a a6 39 37 3b d4 3d 8e 39 9a c0 b1 b8
       0.0009083757 0.0027957945 0.00027130416 -8.4758925e-05
000170 bc d2 ee 3a 6f ad fd 39 cd ed 41 3b 10 c0 1c bc
       0.0018220763 0.00048385139 0.0029591203 -0.009567276
000180 8f fd 89 b9 59 20 d6 ba 72 88 e1 b9 aa d8 6b 3a
       -0.00026319592 -0.0016336545 -0.00043017004 0.0008996824
000190 14 50 26 bb b0 c1 d5 bb ad a3 a7 3a 8b af 47 ba
       -0.002537732 -0.0065233335 0.0012789868 -0.00076174055
0001a0 d7 f9 ed 3b 50 05 1f 3c 95 8e 6c 3c 5d 8f d2 3b
       0.0072624492 0.009705856 0.014438291 0.0064257816
0001b0 b9 95 d9 3b 87 4a ef 3b 9e 9c 15 3c e2 6e f0 3b
       0.006640163 0.0073025855 0.009131579 0.007337437
0001c0 56 3b 1b bb 65 55 05 3b 35 7f 75 bc 13 df e2 bb
       -0.002368649 0.0020345089 -0.014983942 -0.006923565
0001d0 ea 57 3f 3a 52 39 1a bb 9d 45 87 bb e3 86 0f bb
       0.0007299172 -0.00235327 -0.0041281716 -0.0021900467
0001e0 cb c6 3d 3a fc 90 90 bb a3 77 f1 ba 7d d7 9f bb
       0.00072394003 -0.0044118147 -0.0018422495 -0.004877983
0001f0 46 8e b8 ba 40 6f ba ba 36 50 9a ba c9 0d da bb
       -0.0014080487 -0.0014223829 -0.0011773172 -0.0066544753
000200 68 8b 9d bc 2b 6a 58 bc 09 e3 7f bc 12 1a 81 bc
       -0.019231513 -0.013208906 -0.015618094 -0.015759502
000210 94 ae d5 ba bb e3 8d bb 9b 17 9e 3c b0 e2 52 3b
       -0.0016302639 -0.004330126 0.019298365 0.0032178573
000220 a7 87 35 3c b3 a2 00 3c 9f 72 8c ba 3e 31 d5 3b
       0.011079705 0.0078512905 -0.0010715312 0.0065061143
000230 69 9b 98 3c 20 c0 59 39 34 ae f4 3b b3 c6 00 3c
       0.018628793 0.00020766305 0.0074670557 0.007859874
000240 71 a0 0c 3c 0a 41 07 3c 12 c1 11 3c dc 3f 23 bb
       0.008583174 0.008255253 0.008896129 -0.002490989
000250 34 05 b0 3b 6d a5 2a 3b 60 7a d5 3b be 10 e1 3b
       0.005371714 0.0026038543 0.0065148324 0.006868451
000260 95 ed c2 3b d8 72 9f 3b 40 af f0 3b 3f c6 8f 3b
       0.005948732 0.0048659854 0.00734511 0.0043876464
000270 d5 1d 97 3b 04 7a 0d 3c 8b 00 82 3b eb d2 13 3b
       0.0046117106 0.008635048 0.00396735 0.0022556137
000280 6c 02 26 3b 24 5e 26 3a c9 8c 64 3b 05 6b 70 3b
       0.0025331033 0.00063464255 0.0034873954 0.0036684882
000290 c5 58 55 3b e0 4b f6 3a ec aa 8d 3b 75 43 d0 3b
       0.0032554131 0.0018790923 0.004323354 0.0063556978
0002a0 1e 27 b7 3b 7c c4 b3 3b ae 1a 83 3b 86 43 67 3b
       0.00558938 0.0054860692 0.004000983 0.003528805
0002b0 ce f7 65 3b a9 70 b5 3b 61 cd b9 ba 31 b7 87 b8
       0.003509033 0.005537112 -0.0014175588 -6.471424e-05
0002c0 6a 73 06 bb f1 af e3 ba f4 6c 06 bb 60 66 91 3a
       -0.002051557 -0.001737116 -0.0020511718 0.0011093132
0002d0 51 7b 67 bd 18 10 dd bc 6b 0f 67 bb d0 94 2d bd
       -0.056514088 -0.026985213 -0.0035256993 -0.042378247
0002e0 2e df 18 bc 32 ee d6 3b 6d 30 e6 bc b6 53 9b 3a
       -0.009330554 0.006559157 -0.028099263 0.0011850509
0002f0 f9 35 84 3b 5a cb 27 bc 46 fa bd b6 c0 54 ba ba
       0.0040347544 -0.010241354 -5.6617746e-06 -0.0014215931
000300 7d f9 9b b9 71 65 92 3a 2b a3 1d bb c1 01 f3 bb
       -0.00029749787 0.0011169148 -0.0024053555 -0.0074159806
000310 c1 f4 d8 3a 47 aa 1b ba 2a 8c f5 3b f7 84 21 3c
       0.0016552435 -0.0005938154 0.0074935155 0.009858361
000320 c0 ff 6d 3c 56 99 e6 3b 05 4b ef 3b 86 95 00 3c
       0.014526308 0.007037322 0.007302644 0.007848149
000330 ea 48 1d 3c a8 ae 03 3c 4f 6d 31 bb 6c cb d9 3a
       0.009599904 0.008037247 -0.002707321 0.001661641
000340 1b af 79 bc 7d 26 e7 bb 09 60 ec 39 9a 78 31 bb
       -0.015239502 -0.0070541487 0.0004508498 -0.002707994
000350 9f 40 97 bb be 67 31 bb cc 5b 13 3a f1 a5 97 bb
       -0.0046158577 -0.0027069892 0.0005621284 -0.004627936
000360 a9 3c 0a bb b5 48 a9 bb d8 cf d6 ba c1 1b f1 ba
       -0.0021093285 -0.005166138 -0.0016388847 -0.0018395112
000370 17 79 d5 ba 28 ee e7 bb 6f 10 a1 bc 5c 7e 63 bc
       -0.0016286698 -0.007077951 -0.019661156 -0.013885107
000380 ac 0a 83 bc 29 c2 89 bc a7 fc 0a bb 89 8d 93 bb
       -0.0159963 -0.016816216 -0.0021207721 -0.0045029563
000390 9c 7c a6 3c c8 90 7f 3b 25 88 41 3c 6f a9 0b 3c
       0.02032309 0.0038996208 0.011812245 0.008524283
0003a0 5e 26 14 ba 21 bf e9 3b 46 ee 9e 3c e4 ee 1c 3a
       -0.0005651469 0.00713338 0.019400727 0.0005986525
0003b0 12 88 fc 3b 1c 9a 04 3c 87 98 10 3c d4 13 0b 3c
       0.0077066505 0.008093383 0.008825428 0.008488614
0003c0 84 ec 15 3c bc 4a 34 bb d4 11 b2 3b 4a 53 28 3b
       0.009150628 -0.0027510365 0.005434254 0.002568441
0003d0 9c 13 d5 3b 0d c2 df 3b 02 28 c0 3b b0 b1 98 3b
       0.0065025818 0.0068285526 0.0058641443 0.004659854
0003e0 2b 9d ea 3b d7 10 88 3b 9d 7c 8f 3b b7 3f 0b 3c
       0.007159849 0.004152398 0.0043788687 0.0084990775
0003f0 a4 05 82 3b c2 7e 11 3b 13 4a 29 3b e7 39 2a 3a
       0.0039679576 0.0022200798 0.0025831505 0.00064936135

Total_load_adjust1.bias f4 [92]
000000 8b 67 38 3b ac 7b ca bd f7 db cc bd 65 4b 10 be
       0.0028137888 -0.0988687 -0.100028925 -0.1409126
000010 d2 b3 16 be 89 10 75 3d b5 d2 95 3d 90 ce b4 3d
       -0.14717034 0.059830222 0.0731558 0.08828461
000020 31 fc 15 be d2 61 a7 bd 59 3d 18 be 27 b3 11 be
       -0.14646985 -0.081729546 -0.14867152 -0.14228497
000030 b8 21 80 bd 32 3f 24 3d 18 0a db 3d a6 8f 02 3d
       -0.06256431 0.04009933 0.106952846 0.031875275
000040 7e da 1a be 08 b3 fb 3d 39 77 08 3e d0 c9 0c 3e
       -0.1512241 0.12290007 0.1332673 0.1374886
000050 da d5 0c be 62 71 a7 bd 19 fe 87 bd 05 87 03 3e
       -0.13753453 -0.08175923 -0.06640262 0.12844475
000060 cb d9 08 3e 4a 3f 54 3c b7 83 f0 3d 7b 22 e0 3c
       0.13364331 0.012954542 0.117438726 0.027360192
000070 d6 67 44 bd ba a3 69 3d 7e 30 a5 bd 50 c8 63 3d
       -0.04795059 0.057040907 -0.0806589 0.055610955
000080 14 70 8e 3d aa 99 0e 3e 61 9f 18 be 75 fc fd bc
       0.06954971 0.13925806 -0.14904548 -0.03100417
000090 aa 5e b0 bc 54 5c 82 3d aa 94 fb 3d 98 49 e1 3b
       -0.021529514 0.063652664 0.12284215 0.006875228
0000a0 5a 74 db 3c 11 a5 19 be a4 ef dc 3c e3 96 12 bd
       0.02678888 -0.15004374 0.026969738 -0.035788428
0000b0 34 b3 d5 3d 11 b9 bf bb 1c 45 05 3c 9d 42 51 bd
       0.10434571 -0.005850919 0.008134153 -0.051088918
0000c0 9f 98 b5 3d f8 0a b7 bd 0b f2 a6 3d 33 56 e9 3c
       0.08867001 -0.08937639 0.08151635 0.028483486
0000d0 20 34 a3 bd c8 27 08 3e 43 7e ae 3c 6f 5a ef bc
       -0.079689264 0.13296425 0.02130044 -0.029217927
0000e0 bb 64 ac 3c 88 c9 72 bd b7 fb a6 bd d7 69 c5 3d
       0.021044126 -0.059274226 -0.081534795 0.09639328
0000f0 9e e8 fc 3d e8 e8 8d bd dd 9c 58 3d 6d 49 c4 bd
       0.12349056 -0.06929189 0.05288397 -0.09584317
000100 08 06 8d bd 19 a6 10 be ca e9 b0 3d 0f b3 b5 bd
       -0.06885916 -0.14125861 0.08638342 -0.08872043
000110 d1 75 c3 bc 67 13 8d 3d f3 b7 b4 bd 8d b4 c7 bd
       -0.02385989 0.06888466 -0.08824148 -0.09751234
000120 df 40 d4 3d 38 0a 8e bc c1 1b c4 bd 99 aa 54 3c
       0.10363936 -0.017338857 -0.09575606 0.012980127
000130 a4 ec 02 3d 45 62 87 bd 0f 2a 8d bd 19 b4 82 bd
       0.03196396 -0.0661054 -0.06892788 -0.06382007
000140 7d 05 77 3c 88 4d 75 bc 4e a1 cd bd d7 22 d2 3d
       0.015076992 -0.014972098 -0.10040532 0.102605514
000150 a2 4d 6a 3d e7 97 04 3e 69 e3 12 be 70 77 1b 3d
       0.057202943 0.12948571 -0.14344563 0.0379557
000160 fe 15 e9 3d 47 19 f3 bd 55 c7 dc 3d f2 ea c0 bd
       0.11381148 -0.11870056 0.10780207 -0.09419812
